…
[I]     babycry           | 64.02   | 0.73    | 68.68   | 0.48    |
[I]     glassbreak        | 48.07   | 0.70    | 43.01   | 0.74    |
[I]     gunshot           |  nan    | 1.00    |  nan    | 1.00    |
[I]     ----------------- + ------- + ------- + ------- + ------- +
[I]     Average           |  nan    | 0.81    |  nan    | 0.74    |

gunshot ...



















=====================
_________________________________________________________________
Layer (type)                 Output Shape              Param #
=================================================================
input_3 (InputLayer)         (None, 1, 1501, 40)       0
_________________________________________________________________
conv2d_5 (Conv2D)            (None, 96, 1501, 40)      2496
_________________________________________________________________
batch_normalization_5 (Batch (None, 96, 1501, 40)      160
_________________________________________________________________
activation_5 (Activation)    (None, 96, 1501, 40)      0
_________________________________________________________________
dropout_5 (Dropout)          (None, 96, 1501, 40)      0
_________________________________________________________________
max_pooling2d_5 (MaxPooling2 (None, 96, 1501, 4)       0
_________________________________________________________________
conv2d_6 (Conv2D)            (None, 96, 1501, 4)       230496
_________________________________________________________________
batch_normalization_6 (Batch (None, 96, 1501, 4)       16
_________________________________________________________________
activation_6 (Activation)    (None, 96, 1501, 4)       0
_________________________________________________________________
dropout_6 (Dropout)          (None, 96, 1501, 4)       0
_________________________________________________________________
max_pooling2d_6 (MaxPooling2 (None, 96, 1501, 1)       0
_________________________________________________________________
permute_3 (Permute)          (None, 1501, 96, 1)       0
_________________________________________________________________
reshape_3 (Reshape)          (None, 1501, 96)          0
_________________________________________________________________
time_distributed_3 (TimeDist (None, 1501, 1)           97
=================================================================
Total params: 233,265
Trainable params: 233,177
Non-trainable params: 88
_________________________________________________________________
[D]   Model summary
[D]     Layer type      | Output               | Param   | Name                   | Connected to                | Activ.  | Init
[D]     --------------- + -------------------- + ------  + ---------------------  + --------------------------- + ------- + ------
[D]     InputLayer      | (None, 1, 1501, 40)  | 0       | input_3                | ---                         | ---     | ---
[D]     Conv2D          | (None, 96, 1501, 40) | 2496    | conv2d_5               | input_3[0][0]               | linear  | normal
[D]     BatchNorm       | (None, 96, 1501, 40) | 160     | batch_normalization_5  | conv2d_5[0][0]              | ---     | ---
[D]     Activation      | (None, 96, 1501, 40) | 0       | activation_5           | batch_normalization_5[0][0] | relu    | ---
[D]     Dropout         | (None, 96, 1501, 40) | 0       | dropout_5              | activation_5[0][0]          | ---     | ---
[D]     MaxPooling2D    | (None, 96, 1501, 4)  | 0       | max_pooling2d_5        | dropout_5[0][0]             | ---     | ---
[D]     Conv2D          | (None, 96, 1501, 4)  | 230496  | conv2d_6               | max_pooling2d_5[0][0]       | linear  | normal
[D]     BatchNorm       | (None, 96, 1501, 4)  | 16      | batch_normalization_6  | conv2d_6[0][0]              | ---     | ---
[D]     Activation      | (None, 96, 1501, 4)  | 0       | activation_6           | batch_normalization_6[0][0] | relu    | ---
[D]     Dropout         | (None, 96, 1501, 4)  | 0       | dropout_6              | activation_6[0][0]          | ---     | ---
[D]     MaxPooling2D    | (None, 96, 1501, 1)  | 0       | max_pooling2d_6        | dropout_6[0][0]             | ---     | ---
[D]     Permute         | (None, 1501, 96, 1)  | 0       | permute_3              | max_pooling2d_6[0][0]       | ---     | ---
[D]     Reshape         | (None, 1501, 96)     | 0       | reshape_3              | permute_3[0][0]             | ---     | ---
[D]     TimeDistributed | (None, 1501, 1)      | 97      | time_distributed_3     | reshape_3[0][0]             | ---     | ---
[D]
[D]   Parameters
[D]     Trainable	[233,177]
[D]     Non-Trainable	[88]
[D]     Total		[233,265]
[D]
[D]   Files
[D]     Training 	[450]
[D]     Validation 	[50]
[D]
[D]   Input
[D]     Feature vector 	[40]
[D]     Sequence	[1501]		(30.02 sec)
[D]
[D]   Batch size 	[32]
[D]   Epochs 		[200]
[D]
[D]   Generator
[D]     Shuffle 	[True]
…
[I]     glassbreak        | 48.07   | 0.70    | 43.01   | 0.74    |
[I]     gunshot           |  nan    | 1.00    |  nan    | 1.00    |
[I]     ----------------- + ------- + ------- + ------- + ------- +
[I]     Average           |  nan    | 0.81    |  nan    | 0.74    |



================================================================
D]   Model summary
[D]     Layer type      | Output               | Param   | Name                   | Connected to                | Activ.  | Init
[D]     --------------- + -------------------- + ------  + ---------------------  + --------------------------- + ------- + ------
[D]     InputLayer      | (None, 1, 1501, 40)  | 0       | input_3                | ---                         | ---     | ---
[D]     Conv2D          | (None, 96, 1501, 40) | 2496    | conv2d_5               | input_3[0][0]               | linear  | normal
[D]     BatchNorm       | (None, 96, 1501, 40) | 160     | batch_normalization_5  | conv2d_5[0][0]              | ---     | ---
[D]     Activation      | (None, 96, 1501, 40) | 0       | activation_5           | batch_normalization_5[0][0] | relu    | ---
[D]     Dropout         | (None, 96, 1501, 40) | 0       | dropout_5              | activation_5[0][0]          | ---     | ---
[D]     MaxPooling2D    | (None, 96, 1501, 4)  | 0       | max_pooling2d_5        | dropout_5[0][0]             | ---     | ---
[D]     Conv2D          | (None, 96, 1501, 4)  | 230496  | conv2d_6               | max_pooling2d_5[0][0]       | linear  | normal
[D]     BatchNorm       | (None, 96, 1501, 4)  | 16      | batch_normalization_6  | conv2d_6[0][0]              | ---     | ---
[D]     Activation      | (None, 96, 1501, 4)  | 0       | activation_6           | batch_normalization_6[0][0] | relu    | ---
[D]     Dropout         | (None, 96, 1501, 4)  | 0       | dropout_6              | activation_6[0][0]          | ---     | ---
[D]     MaxPooling2D    | (None, 96, 1501, 1)  | 0       | max_pooling2d_6        | dropout_6[0][0]             | ---     | ---
[D]     Permute         | (None, 1501, 96, 1)  | 0       | permute_3              | max_pooling2d_6[0][0]       | ---     | ---
[D]     Reshape         | (None, 1501, 96)     | 0       | reshape_3              | permute_3[0][0]             | ---     | ---
[D]     GRU             | (None, 1501, 96)     | 55584   | gru_3                  | reshape_3[0][0]             | tanh    | uniform
[D]     TimeDistributed | (None, 1501, 1)      | 97      | time_distributed_3     | gru_3[0][0]                 | ---     | ---
[D]
[D]   Parameters
[D]     Trainable	[288,761]
[D]     Non-Trainable	[88]
[D]     Total		[288,849]
[D]
[D]   Files
[D]     Training 	[450]
[D]     Validation 	[50]
[D]
[D]   Input
[D]     Feature vector 	[40]
[D]     Sequence	[1501]		(30.02 sec)
[D]
[D]   Batch size 	[32]
[D]   Epochs 		[200]
[D]
[D]   Generator
[D]     Shuffle 	[True]
…
[I]     gunshot           | 85.08   | 0.27    | 74.56   | 0.47    |
[I]     ----------------- + ------- + ------- + ------- + ------- +
[I]     Average           | 65.31   | 0.51    | 58.02   | 0.60    |
[I]
[I]   DONE     [0:00:01.946375 ]
[I]




=======================================
_________________________________________________________________
[D]   Model summary
[D]     Layer type      | Output               | Param   | Name                   | Connected to                | Activ.  | Init
[D]     --------------- + -------------------- + ------  + ---------------------  + --------------------------- + ------- + ------
[D]     InputLayer      | (None, 1, 1501, 40)  | 0       | input_3                | ---                         | ---     | ---
[D]     Conv2D          | (None, 96, 1501, 40) | 2496    | conv2d_7               | input_3[0][0]               | linear  | normal
[D]     BatchNorm       | (None, 96, 1501, 40) | 384     | batch_normalization_7  | conv2d_7[0][0]              | ---     | ---
[D]     Activation      | (None, 96, 1501, 40) | 0       | activation_7           | batch_normalization_7[0][0] | relu    | ---
[D]     Dropout         | (None, 96, 1501, 40) | 0       | dropout_7              | activation_7[0][0]          | ---     | ---
[D]     MaxPooling2D    | (None, 96, 1501, 8)  | 0       | max_pooling2d_7        | dropout_7[0][0]             | ---     | ---
[D]     Conv2D          | (None, 96, 1501, 8)  | 230496  | conv2d_8               | max_pooling2d_7[0][0]       | linear  | normal
[D]     BatchNorm       | (None, 96, 1501, 8)  | 384     | batch_normalization_8  | conv2d_8[0][0]              | ---     | ---
[D]     Activation      | (None, 96, 1501, 8)  | 0       | activation_8           | batch_normalization_8[0][0] | relu    | ---
[D]     Dropout         | (None, 96, 1501, 8)  | 0       | dropout_8              | activation_8[0][0]          | ---     | ---
[D]     MaxPooling2D    | (None, 96, 1501, 2)  | 0       | max_pooling2d_8        | dropout_8[0][0]             | ---     | ---
[D]     Conv2D          | (None, 96, 1501, 2)  | 230496  | conv2d_9               | max_pooling2d_8[0][0]       | linear  | normal
[D]     BatchNorm       | (None, 96, 1501, 2)  | 384     | batch_normalization_9  | conv2d_9[0][0]              | ---     | ---
[D]     Activation      | (None, 96, 1501, 2)  | 0       | activation_9           | batch_normalization_9[0][0] | relu    | ---
[D]     Dropout         | (None, 96, 1501, 2)  | 0       | dropout_9              | activation_9[0][0]          | ---     | ---
[D]     MaxPooling2D    | (None, 96, 1501, 1)  | 0       | max_pooling2d_9        | dropout_9[0][0]             | ---     | ---
[D]     Permute         | (None, 1501, 96, 1)  | 0       | permute_3              | max_pooling2d_9[0][0]       | ---     | ---
[D]     Reshape         | (None, 1501, 96)     | 0       | reshape_3              | permute_3[0][0]             | ---     | ---
[D]     GRU             | (None, 1501, 96)     | 55584   | gru_3                  | reshape_3[0][0]             | tanh    | uniform
[D]     TimeDistributed | (None, 1501, 1)      | 97      | time_distributed_3     | gru_3[0][0]                 | ---     | ---
[D]
[D]   Parameters
[D]     Trainable	[519,745]
[D]     Non-Trainable	[576]
[D]     Total		[520,321]
[D]
[D]   Files
[D]     Training 	[450]
[D]     Validation 	[50]
[D]
[D]   Input
[D]     Feature vector 	[40]
[D]     Sequence	[1501]		(30.02 sec)
[D]
[D]   Batch size 	[32]
[D]   Epochs 		[200]
[D]
[D]   Generator
[D]     Shuffle 	[True]
…
[I]     ----------------- + ------- + ------- + ------- + ------- +
[I]     babycry           | 86.90   | 0.27    | 86.79   | 0.27    |
[I]     glassbreak        | 94.09   | 0.12    | 88.78   | 0.21    |
[I]     gunshot           | 79.75   | 0.39    | 46.59   | 1.71    |
[I]     ----------------- + ------- + ------- + ------- + ------- +
[I]     Average           | 86.92   | 0.26    | 74.05   | 0.73    |
[I]
[I]   DONE     [0:00:02.031806 ]


============ Cakir table1. - units 32 ====================
Layer (type)                 Output Shape              Param #
=================================================================
input_3 (InputLayer)         (None, 1, 1501, 40)       0
_________________________________________________________________
conv2d_7 (Conv2D)            (None, 32, 1501, 40)      832
_________________________________________________________________
activation_7 (Activation)    (None, 32, 1501, 40)      0
_________________________________________________________________
dropout_7 (Dropout)          (None, 32, 1501, 40)      0
_________________________________________________________________
max_pooling2d_7 (MaxPooling2 (None, 32, 1501, 8)       0
_________________________________________________________________
conv2d_8 (Conv2D)            (None, 32, 1501, 8)       25632
_________________________________________________________________
activation_8 (Activation)    (None, 32, 1501, 8)       0
_________________________________________________________________
dropout_8 (Dropout)          (None, 32, 1501, 8)       0
_________________________________________________________________
max_pooling2d_8 (MaxPooling2 (None, 32, 1501, 2)       0
_________________________________________________________________
conv2d_9 (Conv2D)            (None, 32, 1501, 2)       25632
_________________________________________________________________
activation_9 (Activation)    (None, 32, 1501, 2)       0
_________________________________________________________________
dropout_9 (Dropout)          (None, 32, 1501, 2)       0
_________________________________________________________________
max_pooling2d_9 (MaxPooling2 (None, 32, 1501, 1)       0
_________________________________________________________________
permute_3 (Permute)          (None, 1501, 32, 1)       0
_________________________________________________________________
reshape_3 (Reshape)          (None, 1501, 32)          0
_________________________________________________________________
gru_3 (GRU)                  (None, 1501, 32)          6240
_________________________________________________________________
time_distributed_3 (TimeDist (None, 1501, 1)           33
=================================================================
Total params: 58,369
Trainable params: 58,369
Non-trainable params: 0
_________________________________________________________________
[D]   Model summary
[D]     Layer type      | Output               | Param   | Name                   | Connected to                | Activ.  | Init
[D]     --------------- + -------------------- + ------  + ---------------------  + --------------------------- + ------- + ------
[D]     InputLayer      | (None, 1, 1501, 40)  | 0       | input_3                | ---                         | ---     | ---
[D]     Conv2D          | (None, 32, 1501, 40) | 832     | conv2d_7               | input_3[0][0]               | linear  | normal
[D]     Activation      | (None, 32, 1501, 40) | 0       | activation_7           | conv2d_7[0][0]              | relu    | ---
[D]     Dropout         | (None, 32, 1501, 40) | 0       | dropout_7              | activation_7[0][0]          | ---     | ---
[D]     MaxPooling2D    | (None, 32, 1501, 8)  | 0       | max_pooling2d_7        | dropout_7[0][0]             | ---     | ---
[D]     Conv2D          | (None, 32, 1501, 8)  | 25632   | conv2d_8               | max_pooling2d_7[0][0]       | linear  | normal
[D]     Activation      | (None, 32, 1501, 8)  | 0       | activation_8           | conv2d_8[0][0]              | relu    | ---
[D]     Dropout         | (None, 32, 1501, 8)  | 0       | dropout_8              | activation_8[0][0]          | ---     | ---
[D]     MaxPooling2D    | (None, 32, 1501, 2)  | 0       | max_pooling2d_8        | dropout_8[0][0]             | ---     | ---
[D]     Conv2D          | (None, 32, 1501, 2)  | 25632   | conv2d_9               | max_pooling2d_8[0][0]       | linear  | normal
[D]     Activation      | (None, 32, 1501, 2)  | 0       | activation_9           | conv2d_9[0][0]              | relu    | ---
[D]     Dropout         | (None, 32, 1501, 2)  | 0       | dropout_9              | activation_9[0][0]          | ---     | ---
[D]     MaxPooling2D    | (None, 32, 1501, 1)  | 0       | max_pooling2d_9        | dropout_9[0][0]             | ---     | ---
[D]     Permute         | (None, 1501, 32, 1)  | 0       | permute_3              | max_pooling2d_9[0][0]       | ---     | ---
[D]     Reshape         | (None, 1501, 32)     | 0       | reshape_3              | permute_3[0][0]             | ---     | ---
[D]     GRU             | (None, 1501, 32)     | 6240    | gru_3                  | reshape_3[0][0]             | tanh    | uniform
[D]     TimeDistributed | (None, 1501, 1)      | 33      | time_distributed_3     | gru_3[0][0]                 | ---     | ---
[D]
[D]   Parameters
[D]     Trainable	[58,369]
[D]     Non-Trainable	[0]
[D]     Total		[58,369]
[D]
[D]   Files
[D]     Training 	[450]
[D]     Validation 	[50]
[D]
[D]   Input
[D]     Feature vector 	[40]
[D]     Sequence	[1501]		(30.02 sec)
[D]
[D]   Batch size 	[32]
[D]   Epochs 		[200]
[D]
[D]   Generator
[D]     Shuffle 	[True]
…
